Online-Voting-System-in-Flask-main/data.pth (torch, 6015 bytes, 6 tensors)

l1.weight f4 [8, 77]
0	0xbe9d51ea	-0.30726558
1	0xbe133f6e	-0.14379665
2	0xbebd6a08	-0.36994958
3	0x3e902c7c	0.2815894
4	0xbe863bce	-0.26217502
5	0x3ded1f59	0.11578245
6	0x3de3b312	0.11118139
7	0x3f5ae33a	0.8550297
8	0xbf17cfdb	-0.5930154
9	0xbc209d1e	-0.009803085
10	0x3d789802	0.06069184
11	0x3ecf7136	0.4051606
12	0x3f06b6ab	0.5262248
13	0xbe24496b	-0.16043632
14	0x3f147948	0.5799756
15	0x3e373f4d	0.17895241
16	0x3eaf3027	0.34216425
17	0x3eb7fea1	0.35936454
18	0xbeb84c36	-0.35995644
19	0x3f4cb12e	0.79957855
20	0xbd3c0a1a	-0.04590807
21	0x3e90ca63	0.2827941
22	0x3eab8977	0.33503315
23	0xbeef2959	-0.46711233
24	0xbe81ca83	-0.25349817
25	0xbdb56836	-0.08857767
26	0xbef5a4c2	-0.47977263
27	0xbed40ce0	-0.41416073
28	0x3c9c6b00	0.01909399
29	0xbdd5b659	-0.10435171
30	0xbec22d4e	-0.3792519
31	0x3ec46838	0.38360763
32	0xbdbf8d45	-0.09353117
33	0x3d49abc5	0.049236078
34	0xbb84c269	-0.004051496
35	0x3f0a1c76	0.5394968
36	0x3bd900b7	0.0066223997
37	0x3ed5ee66	0.41783446
38	0xbed25eee	-0.4108805
39	0x3e96faa3	0.29488096
40	0xbd0ec907	-0.034859683
41	0x3f1367ea	0.57580435
42	0x3c07788a	0.008268485
43	0x3e9311a4	0.28724396
44	0xbe1b44ca	-0.1516296
45	0x3bd2f70e	0.0064381426
46	0x3eb802d1	0.3593965
47	0x3cb9dfae	0.022689667
48	0x3e7e65b3	0.24843483
49	0xbe127abe	-0.14304635
50	0x3e1a0c2d	0.15043707
51	0x3e9a9610	0.30192614
52	0x3ebf7aeb	0.37398466
53	0x3eada254	0.3391291
54	0x3e85d80c	0.26141393
55	0x3ee265ff	0.44218442
56	0xbe8db790	-0.2767911
57	0xbde368c6	-0.11103968
58	0x3f1e66f3	0.6187584
59	0x3ee0fa19	0.4394081
60	0x3ec42d75	0.3831593
61	0xbe58813e	-0.21143052
62	0xbf05353f	-0.5203437
63	0x3d256ca6	0.04038682
64	0x3eef393a	0.46723348
65	0xbda86e97	-0.08224218
66	0xb9f45576	-0.0004660298
67	0x3eeaa5f2	0.4582973
68	0xbefe9a98	-0.4972732
69	0xbe236c83	-0.15959363
70	0xbdce9949	-0.100878306
71	0x3f0bbbce	0.5458344
72	0xbce48b4c	-0.027898453
73	0x3ed09906	0.40741748
74	0x3d32ebde	0.04368197
75	0xb78d13eb	-1.6817785e-05
76	0xbe76ed97	-0.24114071
77	0xbe5d1bb1	-0.21592595
78	0x3f1aa3b0	0.6040602
79	0x3eb14f48	0.346308
80	0xbe79d046	-0.24395856
81	0x3d59aa95	0.053141195
82	0xbe9fc38c	-0.31203878
83	0xbe610328	-0.2197386
84	0x3d4ad0e3	0.049515616
85	0x3f3aca5f	0.72965044
86	0x3f439948	0.76405764
87	0x3ee07d04	0.4384538
88	0xbe40e22e	-0.1883628
89	0x3efab0ea	0.489631
90	0xbe332330	-0.17493892
91	0xbe09ac75	-0.13444693
92	0xbe00c531	-0.12575223
93	0xbe1bd346	-0.15217313
94	0x3ec5b1ee	0.38612312
95	0xbe533dec	-0.2062909
96	0x3d0041c7	0.03131273
97	0x3ea68ed8	0.32530856
98	0x3e97ed0c	0.2967304
99	0x3e8ff534	0.28116763
100	0xbed84538	-0.4224031
101	0xbde833ed	-0.11338029
102	0x3f0c4118	0.54786825
103	0xbed6c8a9	-0.41949967
104	0xbed13ee4	-0.40868294
105	0x3f0168f4	0.5055077
106	0x3ec9bcff	0.39402005
107	0x3ee6ff0c	0.4511646
108	0x3e85aa3b	0.26106438
109	0x3ecec542	0.4038487
110	0xbe1df565	-0.15425642
111	0x3eee68fd	0.46564475
112	0x3ebe0828	0.37115598
113	0x3ebaaabf	0.36458394
114	0x3e3f6060	0.18689108
115	0x3efd4c4c	0.49472272
116	0xbe999565	-0.2999679
117	0x3f0152d9	0.5051704
118	0xbdc712e3	-0.09720399
119	0xbe2d5ace	-0.1692917
120	0xbe07b18e	-0.13251325
121	0x3e89d9a5	0.26923862
122	0xbe837991	-0.25678685
123	0x3f04f22b	0.5193202
124	0xbe74bd6f	-0.23900388
125	0xbea09638	-0.31364608
126	0x3e9e5139	0.30921343
127	0xbe661e4b	-0.22472493
128	0x3e982cbf	0.2972164
129	0xbecdbbdb	-0.40182385
130	0x3ed1fcd5	0.41013208
131	0x3f33cf8b	0.7023856
132	0xbecb8f4d	-0.39757767
133	0x3ec8c5e2	0.39213473
134	0x3f090af1	0.5353232
135	0xbdd01439	-0.10160107
136	0x3e9fc88b	0.3120769
137	0x3ef45765	0.47722927
138	0x3ed35194	0.41273177
139	0xbe9ff5d7	-0.31242248
140	0xbed7359c	-0.42033088
141	0x3e508c00	0.20365906
142	0x3eb7accf	0.3587403
143	0xbe0a5fd4	-0.13513118
144	0xbd7d2b49	-0.061808858
145	0x3f063f2d	0.5244015
146	0x3f00c944	0.50307107
147	0x3ef97247	0.4872
148	0x3f34d49f	0.70636934
149	0x3ee3074a	0.443415
150	0x3efeca9b	0.4976395
151	0xbeadcb56	-0.33944196
152	0xbe88a11f	-0.26685426
153	0x3ea3f932	0.32026058
154	0x3f12a4cb	0.57282704
155	0x3ef5ec22	0.48031718
156	0xbd8275b6	-0.06370108
157	0xbe44356c	-0.19161004
158	0x3e6343c3	0.22193818
159	0xbe9f9beb	-0.31173643
160	0xbd4d0c59	-0.050060604
161	0x3f36f689	0.7146993
162	0x3d9d3aa8	0.076772034
163	0x3ed9c6c8	0.4253447
164	0xbe89ee47	-0.26939604
165	0xbe725dab	-0.23668544
166	0xbede8e29	-0.43467835
167	0xbda04e3e	-0.078274235
168	0xbe23c370	-0.15992522
169	0xbdc349a7	-0.095355324
170	0xbe319e86	-0.17345628
171	0xbd86df53	-0.065855645
172	0xbde64092	-0.112427846
173	0x3f461169	0.77370316
174	0x3e6e4299	0.23267592
175	0xbe2601dd	-0.16211648
176	0xbdcf5a98	-0.10124701
177	0xbecb70bd	-0.3973445
178	0x3f15985c	0.58435607
179	0x3e98b98c	0.2982906
180	0xbe517115	-0.20453294
181	0xbe93be73	-0.2885624
182	0x3ea3f9c1	0.32026485
183	0x3e840f4e	0.25792927
184	0xbcfe9d95	-0.031081
185	0xbe01b578	-0.12666881
186	0x3e1361a9	0.14392723
187	0xbc18b355	-0.0093201
188	0x3e0368f5	0.12833007
189	0xbe6c99c7	-0.23105536
190	0x3e2d6927	0.16934644
191	0xbd8500d9	-0.06494302
192	0x3d6a05cb	0.05713443
193	0xbe2665e9	-0.16249813
194	0x3e68ff3d	0.22753616
195	0x3eed2e80	0.4632454
196	0x3f0a1a1c	0.5394609
197	0xbe33f718	-0.17574728
198	0xbd963c2f	-0.07335698
199	0x3ceb96f6	0.028758507
200	0xbe12247e	-0.14271733
201	0xbb6131d8	-0.0034361985
202	0xbe0c023c	-0.13672727
203	0xbe2773e4	-0.16352803
204	0xbdccdfe5	-0.10003642
205	0xbe533b29	-0.20628037
206	0xbe641a64	-0.22275692
207	0xbe235879	-0.15951718
208	0x3eb255b7	0.3483102
209	0xbde440b7	-0.11145156
210	0xbd5b061c	-0.053472623
211	0x3e1742d6	0.1477159
212	0x3f0c9158	0.54909277
213	0xbd3be034	-0.045868114
214	0x3d20bade	0.03924071
215	0xbddec78a	-0.10877903
216	0x3f6f0fea	0.9338366
217	0x3ebb4750	0.36577845
218	0xbe1fd001	-0.15606691
219	0x3eaa642d	0.33279553
220	0xbe184aa9	-0.1487223
221	0x3d795a9e	0.060877435
222	0xbe1b693a	-0.1517686
223	0x3e8b1153	0.27161655
224	0x3ea17bea	0.3153985
225	0xbeb32895	-0.349919
226	0xbea46fbc	-0.32116497
227	0x3d67cd03	0.056592
228	0xbd940322	-0.0722716
229	0x3f0e09f2	0.55483925
230	0xbda46e8d	-0.080288984
231	0x3eec426d	0.4614443
232	0x3eb499ce	0.35273594
233	0x3e33e13c	0.17566389
234	0xbe76be6f	-0.24096082
235	0x3edc7827	0.4306042
236	0x3e94dfed	0.29077092
237	0x3e06feb6	0.13183102
238	0xbf00e993	-0.50356406
239	0x3e81bfe3	0.2534171
240	0x3eadc3cf	0.33938453
241	0xbd630860	-0.05542791
242	0xbe47d6e1	-0.19515564
243	0xbe858de4	-0.26084816
244	0x3e6bf33a	0.23042002
245	0xbdd483d3	-0.10376706
246	0x3d856d27	0.0651496
247	0x3dbe5c78	0.09294981
248	0xbe615c5a	-0.22007886
249	0x3e7a74f2	0.24458674
250	0xbefc88ad	-0.49323025
251	0x3eba0752	0.3633371
252	0xbd602704	-0.05472471
253	0xbdb44fb1	-0.088042624
254	0x3f1d6acb	0.6149108
255	0x3eea4ed8	0.45763278

l1.bias f4 [8]
0	0x3f0530d8	0.52027655
1	0x3ed83067	0.42224428
2	0x3f81fc42	1.0155108
3	0x3f3feaa3	0.749674
4	0x3f00cd71	0.5031348
5	0x3f29b4dd	0.662916
6	0x3eb8fa48	0.3612845
7	0x3f23a470	0.63922787

l2.weight f4 [8, 8]
0	0xbe9642ef	-0.2934794
1	0x3fa5c2e8	1.2950106
2	0xbef55538	-0.4791658
3	0x3ec3d0c4	0.38245213
4	0x3eeaf472	0.45889622
5	0x3f366b95	0.7125791
6	0x3e8dcd21	0.27695563
7	0x3da14fa5	0.07876519
8	0x3fa9c068	1.3261843
9	0x3dfbf97f	0.12303447
10	0x3e8e27e7	0.27764818
11	0xbdd16834	-0.10224953
12	0xbf14a75b	-0.58067864
13	0x3faeb95f	1.3650321
14	0x3f0f39a7	0.55947345
15	0x3f916e14	1.1361718
16	0xbf8d4c77	-1.103896
17	0x3f0e8bd5	0.55682117
18	0x3ed6d079	0.41955927
19	0x3fa845fd	1.3146359
20	0x3f9a940a	1.2076428
21	0xbe1424ab	-0.14467113
22	0x3cc17380	0.023614645
23	0x3e877650	0.26457453
24	0x3bdb8092	0.0066986764
25	0xbf885f2c	-1.0654044
26	0xbf2672bc	-0.6501882
27	0x3f0a8cd7	0.54121155
28	0x3e32d8c5	0.17465504
29	0x3f4f6068	0.8100648
30	0x3eed4dfb	0.46348557
31	0x3f860abc	1.0472026
32	0x3f90b4db	1.1305193
33	0x3f0d3c76	0.5517038
34	0xbf706fab	-0.9392039
35	0xbf35677b	-0.70861024
36	0x3cc34450	0.023836285
37	0x3f1124f8	0.56697035
38	0x3f90ca0f	1.1311663
39	0xbdead51a	-0.11466427
40	0xbe71bf85	-0.23608215
41	0xbf8f9017	-1.1215848
42	0xbf1cc611	-0.61239725
43	0x3ed06b5a	0.40706903
44	0x3e3886e4	0.18020207
45	0x3f56d420	0.8391743
46	0x3f16ad7f	0.58858484
47	0x3f844240	1.0332718
48	0x3ecf8e00	0.40538025
49	0xbd221229	-0.0395681
50	0x3f9b0880	1.2111969
51	0x3f886866	1.065686
52	0x3cc3c529	0.023897724
53	0x3f6de410	0.9292612
54	0xbf5350d2	-0.82545197
55	0x3f12535d	0.5715845
56	0xbe183ecf	-0.1486771
57	0xbeaed053	-0.34143314
58	0xbd9769a0	-0.07393193
59	0xbea2832c	-0.317407
60	0xbea1363b	-0.31486687
61	0x3e067b2e	0.13132927
62	0xbea49433	-0.32144317
63	0x3e07dea4	0.13268524

l2.bias f4 [8]
0	0xbe57c58d	-0.21071453
1	0x3e65ba11	0.2243426
2	0x3f051ab3	0.51993865
3	0x3d590ba4	0.052989617
4	0x3e077d64	0.13231426
5	0x3eb05b99	0.34444883
6	0x3f5da74e	0.8658341
7	0xbe399da4	-0.18126541

l3.weight f4 [7, 8]
0	0x3ee08553	0.43851718
1	0x3dc8f62c	0.098125786
2	0x3ddfddd4	0.10930982
3	0xbf8577a9	-1.0427142
4	0xbf87d368	-1.0611391
5	0xbf576435	-0.8413728
6	0x3d66fe12	0.056394644
7	0x3db4a644	0.08820775
8	0xbfb40751	-1.4064733
9	0x3f4fb37b	0.8113324
10	0xbf1793ed	-0.5921009
11	0xbf925612	-1.1432517
12	0xbf361760	-0.7112942
13	0xbf95ce44	-1.1703572
14	0x3f371dad	0.71529657
15	0x3ba93080	0.0051632524
16	0xbec7aea4	-0.39000428
17	0x3dd7c10d	0.105348684
18	0x3dbcbf26	0.09216146
19	0x3f29716d	0.661887
20	0xbfa6dc2d	-1.3035942
21	0x3f3a628a	0.7280661
22	0xbdd44705	-0.103651084
23	0x3b97e800	0.004635811
24	0xbe1b1f37	-0.15148626
25	0x3e9df768	0.30852818
26	0xbf3bf265	-0.7341674
27	0xbeb7bc4c	-0.35885847
28	0x3f13cc12	0.5773326
29	0xbde2b818	-0.11070269
30	0xbf7e7754	-0.9940083
31	0xbe9fea7e	-0.3123359
32	0x3ef6fbc6	0.48238963
33	0xbf641f5c	-0.8911035
34	0x3f027f60	0.5097561
35	0xbf49995f	-0.7874965
36	0x3d8c813d	0.06860588
37	0xbf21222c	-0.6294277
38	0xbf44763a	-0.767429
39	0x3d9821ac	0.074282974
40	0xbf8b9222	-1.0903971
41	0x3e8de1a9	0.27711228
42	0xbf7fd8f7	-0.9994044
43	0x3f4ab628	0.791842
44	0x3dbd3835	0.09239236
45	0x3f1a6210	0.6030588
46	0xbf49e4dc	-0.78864837
47	0xbd57cc88	-0.05268529
48	0xbf92d5e7	-1.1471528
49	0xbfbc56c4	-1.4713979
50	0x3f4623f7	0.7739863
51	0xbf4572e8	-0.7712846
52	0xbeaab3ad	-0.33340207
53	0xbf6e3d1e	-0.9306201
54	0x3f4075dc	0.7517984
55	0x3ea69889	0.3253825

l3.bias f4 [7]
0	0xbf117634	-0.5682099
1	0x3e1a640d	0.15077229
2	0xbe427971	-0.18991639
3	0x3eaf9bb5	0.34298483
4	0x3e2c47d1	0.16824271
5	0xbe0e747c	-0.13911623
6	0x3dbe601f	0.092956774
